model/lenet-1_snn.onnx (onnx, 19132 bytes, 6 tensors)

predictions_4/kernel:0 f4 [300, 10]
-0.04751598 0.100167595 0.09882778 -0.1191133 -0.1322257 -0.1081851 0.022422642 -0.0077928235
-0.056949683 0.064850874 0.0069940253 0.06805867 -0.03037418 -0.09818791 -0.10952319 0.12515801
-0.099149786 0.12835692 0.026073901 -0.035333864 -0.13330022 0.11306013 -0.055768054 -0.09433665
-0.062712066 0.10270557 0.028730001 -0.033062715 0.03090168 0.12516057 0.08095097 -0.009694565
0.0077275117 -0.06537121 -0.12850034 0.09824481 0.112204075 0.0036543694 -0.021933833 -0.02801516
0.033012196 0.12959895 0.13975534 -0.13007466 0.04156884 -0.062573224 -0.12382363 0.08679189
-0.07870288 0.01864281 -0.0026574882 -0.060079657 0.12527207 -0.015539752 0.041440014 -0.12123523
-0.020980818 -0.042604506 0.12536287 -0.015316945 -0.13382807 0.008342786 -0.12991446 -0.120557345
-0.09630925 0.057824533 -0.13594592 -0.08261493 0.13604666 0.08690037 0.10494496 -0.09500049
-0.017506685 0.087725766 0.060757346 0.036807083 0.061806377 0.0072659496 -0.0021046547 0.10578237
-0.02811069 -0.022587929 0.018686697 -0.12881935 -0.05356656 0.059547603 0.12512513 -0.012492828
0.002979591 0.045220148 -0.10754193 0.086586334 -0.023612583 0.011668907 0.057415467 0.13359985
0.062012017 0.073432006 0.091017164 -0.10937575 -0.097020134 0.012989509 0.11104799 -0.018881606
0.045948252 0.055813294 0.033935145 -0.08520349 -0.00097300403 0.001767963 0.091708 -0.071377255
-0.08819757 -0.0988789 -0.07721904 -0.04160323 0.01640132 0.071000524 -0.07091497 0.09315799
-0.019213598 -0.05380955 0.013709274 -0.020005248 -0.07396768 -0.12730159 -0.056194577 -0.080409035
0.06878191 -0.058001395 -0.09223126 0.0037858451 -0.135833 0.055392858 0.11409749 0.114315294
-0.07267539 0.11538772 -0.08487266 -0.0032013892 0.100121155 0.05864426 0.022778852 0.07037341
-0.14093372 0.017571397 -0.005625588 0.04250572 0.09009774 -0.043127865 -0.12086088 0.08177181
-0.044578176 0.02671608 0.041541003 0.101874344 0.0024841633 0.13755473 0.021372491 0.011204102
0.11810914 -0.13092455 0.007733935 -0.07453325 0.05172815 0.07702086 -0.14270899 -0.12430961
0.010658069 0.12678076 -0.05408911 0.11855461 -0.02574822 0.079109654 0.09892425 0.091237985
-0.12639812 -0.022313079 -0.09949886 -0.004961125 -0.04408904 0.13123393 -0.011211937 0.055759862
0.010392023 0.005827943 -0.09155385 -0.11514684 -0.06010744 0.044206128 -0.11347199 -0.114921965
0.023446593 -0.0055678156 -0.09938388 0.04076001 0.13520467 -0.049945366 -0.07930161 -0.041188978
0.078698665 0.07644138 0.024106022 -0.0338286 -0.057382785 0.12270683 -0.13363583 0.04843247
-0.089242935 -0.1200456 -0.015941981 -0.11876192 -0.13269502 -0.08201838 -0.05964154 -0.0061302725
-0.07337407 -0.055484954 0.13095717 0.05610359 -0.06266909 0.05816773 -0.09453414 -0.13968791
0.11524701 0.046643294 -0.031589713 0.04658693 0.08407912 -0.07747817 0.07024013 -0.08025657
0.013999866 0.05496407 -0.102366805 -0.060206674 0.04420054 0.04052816 0.060352392 0.06542748
-0.1333934 0.097791776 -0.11179208 0.11329336 0.11491839 0.13221793 0.092076294 0.031982653
0.026711887 -0.046413828 0.016106004 -0.02001822 -0.13841179 -0.12338134 0.1048288 -0.09832815
00000000: 1ea0 42bd ab24 cd3d 3866 ca3d adf1 f3bd
00000010: 2d66 07be 2690 ddbd b0af b73c f15a ffbb
00000020: 1244 69bd 89d0 843d 232e e53b 5862 8b3d
00000030: 46d3 f8bc be16 c9bd b24d e0bd 6c29 003e
00000040: 0b0f cbbd ff6f 033e ef98 d53c 3eba 10bd
00000050: da7f 08be 128c e73d 0b6d 64bd 9333 c1bd
00000060: 2f6f 80bd 4c57 d23d 2e5b eb3c c56c 07bd
00000070: 8525 fd3c 182a 003e 9fc9 a53d f4d5 1ebc
00000080: 1137 fd3b 57e1 85bd 9895 03be 9334 c93d
00000090: 40cb e53d 257e 6f3b 95ae b3bc 0c80 e5bc
000000a0: cc37 073d 96b5 043e 061c 0f3e 4b32 05be
000000b0: 1744 2a3d 6426 80bd 3e97 fdbd f2bf b13d
000000c0: fa2e a1bd ceb8 983c 4129 2ebb 1616 76bd
000000d0: 5247 003e 729a 7ebc 01bd 293d 2d4a f8bd
000000e0: f7df abbc 1082 2ebd 205f 003e ecf3 7abc
000000f0: 3a0a 09be 2eb0 083c 4c08 05be c5e6 f6bd
00000100: c93d c5bd 6bd9 6c3d 6835 0bbe 0432 a9bd
00000110: d14f 0b3e d2f8 b13d 62ed d63d 9e8f c2bd
00000120: 2e6a 8fbc 91a9 b33d b2dc 783d 06c3 163d
00000130: af28 7d3d 3417 ee3b 3fee 09bb 6da4 d83d
00000140: 6448 e6bc 520a b9bc d814 993c 38e9 03be
00000150: 9c68 5bbd 30e8 733d cd20 003e b8ae 4cbc
00000160: 3e45 433b c338 393d f23e dcbd 2d54 b13d
00000170: 2d6f c1bc f12e 3f3c 7b2c 6b3d 66ce 083e
00000180: 5000 7e3d 8563 963d 3567 ba3d 6500 e0bd
00000190: 7eb2 c6bd f3d1 543c 216d e33d 99ad 9abc
000001a0: 3c34 3c3d 7b9c 643d 94ff 0a3d 2b7f aebd
000001b0: 3211 7fba ffba e73a 67d1 bb3d 3d2e 92bd
000001c0: eda0 b4bd 0581 cabd 0425 9ebd 2668 2abd
000001d0: 105c 863c b968 913d de3b 91bd 9ec9 be3d
000001e0: d665 9dbc 6767 5cbd dd9c 603c 0ce2 a3bc
000001f0: 5e7c 97bd 595b 02be 492c 66bd 7ead a4bd
00000200: 88dd 8c3d df92 6dbd bee3 bcbd f11b 783b
00000210: ce17 0bbe 9fe3 623d f2ab e93d 231e ea3d
00000220: d6d6 94bd 6650 ec3d b8d1 adbd 66ce 51bb
00000230: 520c cd3d f734 703d b79a ba3c ef1f 903d
00000240: ee50 10be e4f1 8f3c da56 b8bb 7a1a 2e3d
00000250: 2a85 b83d d8a6 30bd e985 f7bd fb77 a73d
00000260: 9b97 36bd aedb da3c e626 2a3d 7fa3 d03d
00000270: 58cd 223b 26db 0c3e 5d15 af3c 6991 373c
00000280: 34e3 f13d 1611 06be f36c fd3b e3a4 98bd
00000290: e6e0 533d 1dbd 9d3d 4e22 12be 0996 febd
000002a0: 2e9f 2e3c d1d2 013e 8b8c 5dbd c2cc f23d
000002b0: eeed d2bc 3e04 a23d cc98 ca3d fbda ba3d
000002c0: 826e 01be ebc9 b6bc 0fc6 cbbd ef90 a2bb
000002d0: b696 34bd 3062 063e 46b2 37bc 7464 643d
000002e0: 4e43 2a3c 54f8 be3b 9680 bbbd 1bd2 ebbd
000002f0: 3833 76bd 7c11 353d 0164 e8bd 355c ebbd
00000300: 1213 c03c 3972 b6bb c789 cbbd f8f3 263d
00000310: 1873 0a3e 8393 4cbd e268 a2bd c6b5 28bd
00000320: c42c a13d 4c8d 9c3d fe79 c53c dc8f 0abd
00000330: 360a 6bbd b84d fb3d d5d7 08be 2061 463d
00000340: 00c5 b6bd 78da f5bd c298 82bc 7339 f3bd
00000350: 34e1 07be 41f9 a7bd b04a 74bd 74e0 c8bb
00000360: 2545 96bd 3144 63bd a319 063e e1cc 653d
00000370: a758 80bd 4941 6e3d 1d9b c1bd 590a 0fbe
00000380: a006 ec3d 0a0d 3f3d 3764 01bd f0d1 3e3d
00000390: ac31 ac3d e0ac 9ebd 0fda 8f3d 8e5d a4bd
000003a0: b25f 653c 0122 613d b0a5 d1bd 469b 76bd
000003b0: a00b 353d db00 263d 1234 773d d8fe 853d
000003c0: 4898 08be 0e47 c83d 3ff3 e4bd 5906 e83d
000003d0: 555a eb3d 2364 073e 7f92 bc3d 3e00 033d
000003e0: e3d2 da3c 6d1c 3ebd bdf0 833c 40fd a3bc
000003f0: d2bb 0dbe 5baf fcbd 7bb0 d63d 4560 c9bd

predictions_4/bias:0 f4 [10]
0.00027492183 0.011777087 0.010564641 0.0019978685 -0.007150367 0.0016541814 -0.008767575 -0.0034607463
-0.0015661789 -0.0053238356
00000000: 6223 9039 aff4 403c 5117 2d3c acee 023b
00000010: a04d eabb 1ed1 d83a e0a5 0fbc b0cd 62bb
00000020: 3e48 cdba 9273 aebb

conv2_4/kernel:0 f4 [12, 4, 5, 5]
-0.106126904 0.054138374 0.0998618 0.11180447 0.030939505 0.010038749 -0.11023303 0.046701953
0.06670017 0.12521297 -0.07465171 0.023247397 -0.053524982 -0.024691584 0.08810084 0.03280139
0.09984469 -0.0006616451 0.08361123 0.07229707 0.00781639 -0.01571628 -0.015262413 -0.06939611
-0.055004485 0.11566176 -0.04236324 0.015106954 -0.00224611 -0.011494252 0.09203514 -0.016479945
0.07984491 -0.026056549 0.0065443157 0.018146647 -0.0592163 -0.07266389 -0.11337514 -0.07145035
-0.043544654 0.005710011 0.07741124 -0.08360593 0.06970725 0.06865166 0.10935315 -0.054045055
0.04535595 -0.031568453 -0.015141586 -0.034739606 -0.035694327 -0.028949328 0.12344774 -0.07012503
0.037206046 0.021780215 0.08122113 -0.060853828 -0.07392807 -0.08901514 -0.019209635 0.015347207
-0.027953824 0.059388563 0.07379306 0.033649705 -0.09358396 0.034421347 -0.13003927 -0.07525484
-0.024928842 0.092833795 0.025317378 0.102719225 0.04680295 0.11885716 0.04286665 0.0529129
0.11004672 -0.087273575 -0.07845832 -0.08431207 0.065346286 -0.05598626 -0.10193598 -0.06160819
-0.08471683 0.13522041 -0.06751707 0.108993694 0.047037892 0.053383853 -0.0665213 -0.095151305
-0.026894951 -0.08345731 -0.054920077 -0.10323334 0.07678652 0.12474447 0.0720196 -0.13533382
-0.13515633 0.06721121 -0.041356236 0.14302897 0.05375487 -0.049805414 -0.008254406 -0.07188128
0.096090846 -0.08538839 -0.035876494 0.01102924 0.13701348 0.09153741 -0.08754398 -0.062404312
-0.078868434 -0.116117075 0.027947858 0.021617983 0.00797363 -0.006863175 -0.084162936 0.05383023
0.11354802 0.046100054 0.032523364 -0.113809794 -0.0030794868 -0.09213886 0.12195916 0.024909027
0.020065507 0.10262533 -0.0011345664 0.059902396 -0.00929747 0.10112903 0.017837156 0.008151072
0.03674302 0.099802434 -0.015854802 -0.10848086 -0.013063457 0.12022135 0.10608019 0.027901541
-0.10749187 0.0961024 -0.08888662 -0.020154733 -0.105494305 0.048989087 0.019068064 -0.011244799
-0.050542273 0.076445974 0.022904431 -0.10755629 0.027711974 0.078414865 -0.019403445 0.13546427
-0.018458001 0.100798115 -0.0796054 0.06083028 0.014024653 0.09362673 0.037835546 -0.048184212
0.055755954 0.05623417 -0.08954304 -0.016287794 0.11356659 -0.035673358 0.024061179 -0.018273637
0.07378796 0.015598941 0.0136984475 -0.10054207 0.004968752 -0.083871774 -0.016232084 0.012875377
0.08130624 -0.001831531 0.05650147 0.05560632 0.038034465 -0.0017572977 -0.012078302 -0.09723894
-0.037870266 0.12007173 0.063737564 -0.016241439 -0.05241312 0.057708196 0.04367185 -0.1121798
-0.05859837 -0.019959131 -0.0049152 -0.028824601 -0.012468383 -0.105432495 0.019878954 -0.060019914
0.038048808 -0.10342005 0.10505154 0.0037284042 -0.011331064 -0.039285123 -0.10740344 -0.083602585
-0.014615447 -0.048176624 0.0340288 0.061929222 0.071363024 -0.03088575 0.032902017 0.010019349
0.017667478 -0.07953813 -0.08037908 0.13783342 0.11468044 0.107162505 0.07498174 0.006099577
0.062125847 0.0052525704 0.026431916 -0.00011660466 0.0733617 0.0011676551 -0.088337116 0.07398516
0.09110694 0.1130529 -0.015481997 -0.005293513 0.03468902 -0.1276675 0.05017378 0.080795
00000000: 1059 d9bd 33c0 5d3d 5884 cc3d bef9 e43d
00000010: d874 fd3c 9179 243c dbc1 e1bd 8c4a 3f3d
00000020: 199a 883d d437 003e ffe2 98bd 5371 be3c
00000030: 033d 5bbd 0146 cabc 376e b43d c05a 063d
00000040: 5f7b cc3d 4072 2dba 5d3c ab3d 7c10 943d
00000050: 5110 003c 6ebf 80bc 330f 7abc 8c1f 8ebd
00000060: 624c 61bd 13e0 ec3d 1485 2dbd 2883 773c
00000070: 7933 13bb 6352 3cbc eb7c bc3d f300 87bc
00000080: ba85 a33d 8b74 d5bc b371 d63b 47a8 943c
00000090: ca8c 72bd ced0 94bd 3a31 e8bd 9054 92bd
000000a0: e15b 32bd 0b1b bb3b c989 9e3d 9639 abbd
000000b0: adc2 8e3d 3e99 8c3d 8bf4 df3d 595e 5dbd
000000c0: 29c7 393d ec4d 01bd 6a14 78bc 1e4b 0ebd
000000d0: 3734 12bd 2427 edbc 2bd2 fc3d b69d 8fbd
000000e0: 5e65 183d 6c6c b23c 4457 a63d dd41 79bd
000000f0: 9a67 97bd 924d b6bd 865d 9dbc da72 7b3c
00000100: 6bff e4bc 6c41 733d d120 973d 46d4 093d
00000110: f2a8 bfbd 66fd 0c3d 0429 05be 361f 9abd
00000120: 9237 ccbc a51f be3d 6466 cf3c 755e d23d
00000130: 73b4 3f3d 626b f33d f194 2f3d 32bb 583d
00000140: 2d60 e13d 7dbc b2bd c1ae a0bd ceab acbd
00000150: 46d4 853d d951 65bd d0c3 d0bd df58 7cbd
00000160: 0480 adbd 3877 0a3e 6446 8abd 1638 df3d
00000170: ceaa 403d 07a9 5a3d 523c 88bd b0de c2bd
00000180: cd52 dcbc abeb aabd e0f3 60bd 006c d3bd
00000190: 4042 9d3d 077a ff3d 037f 933d f394 0abe
000001a0: 6c66 0abe 08a6 893d 2865 29bd 3076 123e
000001b0: 112e 5c3d c300 4cbd 7d3d 07bc 7e36 93bd
000001c0: 47cb c43d 1ce0 aebd 3bf3 12bd fcb3 343c
000001d0: 434d 0c3e f777 bb3d 424a b3bd aa9b 7fbd
000001e0: c685 a1bd cace edbd e8f2 e43c 3218 b13c
000001f0: d4a3 023c 7ce4 e0bb 9e5d acbd 167d 5c3d
00000200: dd8b e83d 69d3 3c3d 3837 053d 1c15 e9bd
00000210: 37d1 49bb 4cb3 bcbd b9c5 f93d 040e cc3c
00000220: 6b60 a43c 3b2d d23d bbb5 94ba 375c 753d
00000230: 6a54 18bc bd1c cf3d 3a1f 923c 138c 053c
00000240: d97f 163d 3865 cc3d eee1 81bc 372b debd
00000250: 1c08 56bc 9c36 f63d 9240 d93d c691 e43c
00000260: b324 dcbd 56d1 c43d 300a b6bd 8a1b a5bc
00000270: 660d d8bd c8a8 483d a134 9c3c 1b3c 38bc
00000280: 6a05 4fbd b58f 9c3d 13a2 bb3c 7946 dcbd
00000290: 3904 e33c f997 a03d f9f3 9ebc 25b7 0a3e
000002a0: 3c35 97bc 3e6f ce3d 2808 a3bd 2c29 793d
000002b0: a8c7 653c 5fbf bf3d 72f9 1a3d cf5c 45bd
000002c0: 5b60 643d cd55 663d 5762 b7bd fb6d 85bc
000002d0: 9a95 e83d 3a1e 12bd f31b c53c 98b2 95bc
000002e0: 241e 973d b392 7f3c 746f 603c 00e9 cdbd
000002f0: ead0 a23b f7c4 abbd 26f9 84bc 3ff3 523c
00000300: e383 a63d fb0f f0ba 166e 673d 74c3 633d
00000310: 07ca 1b3d 2055 e6ba 12e4 45bc 3625 c7bd
00000320: da1d 1bbd 2be8 f53d d788 823d c40c 85bc
00000330: 24af 56bd 6e5f 6c3d 41e1 323d 86be e5bd
00000340: d804 70bd 5581 a3bc b00f a1bb 9221 ecbc
00000350: 3048 4cbc feec d7bd 30d9 a23c 71d7 75bd
00000360: 11d9 1b3d e4cd d3bd 4325 d73d 3e58 743b
00000370: eda5 39bc 70e9 20bd 56f6 dbbd d537 abbd
00000380: a175 6fbc da54 45bd c861 0b3d 7fa9 7d3d
00000390: c726 923d 1d04 fdbc 44c4 063d 3228 243c
000003a0: 63bb 903c e3e4 a2bd c99d a4bd 3424 0d3e
000003b0: 94dd ea3d 0478 db3d 0790 993d f6de c73b
000003c0: ac77 7e3d c11d ac3b bf87 d83c a689 f4b8
000003d0: a93e 963d 010c 993a 17ea b4bd 8885 973d
000003e0: 4696 ba3d 4788 e73d 34a8 7dbc 3575 adbb
000003f0: 1316 0e3d 45bb 02be 0683 4d3d d977 a53d

conv2_4/bias:0 f4 [12]
-9.3652576e-05 -0.0035629515 0.011670825 -0.00729204 0.00632771 0.0081559215 0.0065230276 -0.01944657
-0.0012907133 -0.0026225457 0.0044347644 0.0056501706
00000000: 5867 c4b8 6880 69bb fd36 3f3c 11f2 eebb
00000010: ae58 cf3b 6aa0 053c 1fbf d53b 6a4e 9fbc
00000020: 272d a9ba 04df 2bbb 8051 913b 1125 b93b

conv1_4/kernel:0 f4 [4, 1, 5, 5]
-0.10697001 0.051803984 -0.020473385 -0.1933606 -0.014494872 0.0711532 0.15389976 0.16908789
-0.1860481 -0.0107700685 0.04094802 -0.11854031 -0.011100271 -0.096556544 -0.1534799 0.17548011
-0.13223293 -0.025229072 0.07499647 -0.14794695 0.14025055 0.22541386 0.06775621 0.2128844
-0.08640986 -0.076302156 -0.08440863 0.21684599 -0.027151292 0.21885283 0.19018535 -0.026086237
0.091279425 -0.016562762 -0.2083799 0.09822584 0.059668448 -0.031213066 -0.16327329 -0.044771202
-0.068085425 0.15945666 -0.14485478 -0.023485303 -0.057185173 -0.06448601 0.013676198 -0.22235866
-0.13997993 0.171151 0.09348554 -0.050621714 -0.07892949 -0.055982236 -0.17912701 0.19800164
-0.12062572 0.010208154 0.1364418 0.18701419 -0.047184993 -0.14056875 0.22268623 0.13297287
-0.13343462 0.07931297 0.19110602 0.12320778 -0.16565932 -0.116232 0.16434811 -0.115870774
0.090854175 0.013553408 0.039468184 0.19470014 0.2135426 -0.11036317 -0.07115183 -0.08915532
0.2165046 0.06969592 -0.06614965 -0.043571454 0.094030336 0.13679706 0.17125396 -0.15541439
0.07133696 0.1332399 0.18799557 -0.01685121 0.149781 0.024803596 -0.14812425 0.10034126
-0.095006466 0.07108822 -0.007756917 -0.16226447
00000000: 1813 dbbd 6a30 543d cdb7 a7bc 5200 46be
00000010: e67b 6dbc c5b8 913d e697 1d3e 6025 2d3e
00000020: 6583 3ebe f174 30bc 1cb9 273d 43c5 f2bd
00000030: e9dd 35bc 70bf c5bd d629 1dbe 0fb1 333e
00000040: 1268 07be 33ad cebc c097 993d 687f 17be
00000050: d79d 0f3e e4d2 663e c5c3 8a3d 5efe 593e
00000060: a7f7 b0bd 4e44 9cbd 6fde acbd e00c 5e3e
00000070: 636c debc f51a 603e f3bf 423e ceb2 d5bc
00000080: b5f0 ba3d a1ae 87bc 8a61 55be a12a c93d
00000090: e766 743d 8bb2 ffbc 1d31 27be 0262 37bd
000000a0: 5f70 8bbd 9b48 233e d054 14be 4064 c0bc
000000b0: 003b 6abd 3e11 84bd 2212 603c fdb1 63be
000000c0: e656 0fbe 3542 2f3e 5975 bf3d b758 4fbd
000000d0: c9a5 a1bd a14d 65bd 126d 37be f1c0 4a3e
000000e0: 9e0a f7bd 1a40 273c 66b7 0b3e a680 3f3e
000000f0: 0d45 41bd 41f1 0fbe dc07 643e 0a2a 083e
00000100: 16a3 08be d76e a23d 4cb1 433e 5c54 fc3d
00000110: 99a2 29be 0b0b eebd df4a 283e a84d edbd
00000120: c111 ba3d 1d0f 5e3c 64a9 213d 795f 473e
00000130: e9aa 5a3e 1606 e2bd 0db8 91bd 1097 b6bd
00000140: 62b3 5d3e bcbc 8e3d 7879 87bd fb77 32bd
00000150: fa92 c03d 8714 0c3e 335d 2f3e f324 1fbe
00000160: 1d19 923d 0a70 083e e981 403e 8c0b 8abc
00000170: 3160 193e e930 cb3c e2ad 17be b87f cd3d
00000180: c092 c2bd b396 913d bc2d febb a828 26be

conv1_4/bias:0 f4 [4]
-0.019566715 0.020999651 -0.02375556 -0.0012838275
00000000: 604a a0bc 7607 ac3c 059b c2bc 1a46 a8ba
