weights/mnist_params_adam_0.001_3_100.npz (npz, 17318 bytes, 6 tensors)

arr_0 f4 [5, 5, 1, 4]
0.081227005 -0.18927602 0.19001286 -0.033765405 0.032568157 -0.22228824 0.22266428 0.17253497
-0.027203469 0.006209895 0.2779468 -0.13875782 0.035004616 -0.05044961 -0.04585882 -0.02741028
-0.2023152 -0.059274353 0.03680782 0.15642585 0.16921258 -0.101750776 -0.03785784 -0.20549639
0.20615333 0.11553914 -0.16210741 -0.0726994 0.17430605 0.036093805 -0.049971435 -0.15298001
0.08573466 -0.058663446 0.1505175 -0.052964482 -0.13701326 0.066306055 -0.022299638 0.16934662
0.23093878 -0.062234033 -0.18396318 0.031110642 0.049324967 0.023924056 -0.041756675 -0.04509161
0.19185024 0.010683738 0.02261901 0.14804924 0.073493294 0.20712893 -0.038352944 0.13247606
-0.020529108 0.12175307 -0.027805066 0.33623046 -0.1262094 0.15861379 -0.1224669 -0.053645767
0.22093469 0.10490349 -0.13895856 0.05857393 -0.0061518825 0.23810005 -0.19684952 -0.13965161
-0.029651145 -0.09935239 -0.2571682 0.10528573 -0.08026307 -0.09197713 -0.1211399 0.18334346
-0.18492387 -0.14513764 -0.25359005 0.0796917 -0.114131995 -0.010079692 0.013775369 0.124702126
-0.056676757 -0.04838997 0.029691637 0.2607874 -0.1190653 -0.030110702 -0.050807007 0.26914003
-0.09065013 -0.24071303 0.08119727 -0.12430837
00000000: 585a a63d 93d1 41be bb92 423e 984d 0abd
00000010: 3066 053d 879f 63be 1b02 643e 02ad 303e
00000020: cfd9 debc 607c cb3b 0b4f 8e3e 8816 0ebe
00000030: 0061 0f3d 40a4 4ebd 75d6 3bbd 868b e0bc
00000040: b72b 4fbe aac9 72bd ccc3 163d 192e 203e
00000050: 1046 2d3e b662 d0bd d310 1bbd a56d 52be
00000060: dc19 533e c99f ec3d 7cff 25be 6ce3 94bd
00000070: 497d 323e 19d7 133d d9ae 4cbd cba6 1cbe
00000080: a795 af3d 1549 70bd 4221 1a3e 49f1 58bd
00000090: 344d 0cbe 78cb 873d bbad b6bc 3369 2d3e
000000a0: 377b 6c3e 1de9 7ebd d860 3cbe bfdb fe3c
000000b0: fa08 4a3d 62fc c33c 0c09 2bbd fbb1 38bd
000000c0: 6474 443e d80a 2f3c 814b b93c 389a 173e
000000d0: a783 963d 9b19 543e fa17 1dbd cea7 073e
000000e0: a92c a8bc ac59 f93d 73c7 e3bc 6626 ac3e
000000f0: 093d 01be a76b 223e edcf fabd aabb 5bbd
00000100: b43c 623e a4d7 d63d 274b 0ebe 38eb 6f3d
00000110: bb95 c9bb 80d0 733e ec92 49be d500 0fbe
00000120: f5e6 f2bc 4479 cbbd 8dab 83be 0ba0 d73d
00000130: f760 a4bd 815e bcbd 3218 f8bd 63be 3b3e
00000140: af5c 3dbe f69e 14be 8ed6 81be 6735 a33d
00000150: 09be e9bd 4b25 25bc 16b2 613c d463 ff3d
00000160: e325 68bd 9034 46bd e03b f33c ed85 853e
00000170: 82d8 f3bd b8aa f6bc 021b 50bd b9cc 893e
00000180: c6a6 b9bd 7a7d 76be c14a a63d 6395 febd

arr_1 f4 [4]
-0.0034233143 -0.006062304 -0.01118189 -0.0019128267
00000000: af59 60bb 4ba6 c6bb 3f34 37bc d0b7 faba

arr_2 f4 [5, 5, 4, 12]
0.09967616 -0.12015493 0.005894198 0.123831436 -0.11225981 -0.07631376 0.061956916 0.034463424
-0.0037873513 -0.05017438 -0.090914436 -0.12320036 0.24515311 0.010717193 -0.003552006 0.029206373
0.034409262 0.042078167 0.044412006 -0.050544944 0.044066004 -0.014320069 0.030435013 0.025762405
-0.011131536 0.09312059 0.13180608 -0.13796373 0.10884358 0.026656065 -0.14853984 -0.10788668
0.105311744 -0.11018096 -0.01329058 0.0017546371 0.068955556 -0.12353992 0.12452932 -0.03494359
-0.119358614 0.1606106 -0.045349844 -0.0056107608 0.0862648 -0.004572479 0.01075699 -0.139844
-0.022407819 -0.05026728 -0.012724088 -0.07871771 -0.14653572 -0.04836617 0.09953013 -0.11878554
-0.1158739 0.0073806094 -0.16999255 -0.08277548 0.09574177 0.060177915 -0.06128203 0.038914874
-0.02151457 0.11832504 0.10307144 -0.04609858 0.10229424 0.0017202387 -0.088073686 0.01505798
0.05532623 0.06259369 -0.08019786 -0.021038324 0.15517014 0.08723826 0.04133473 -0.15420394
0.12310606 -0.112587675 0.0054310746 -0.008503933 -0.052627806 -0.088867 0.22374642 -0.16031584
-0.0070112264 0.011331846 -0.036640324 0.1746405 -0.06318095 0.023781028 0.1515349 0.12613168
0.100715876 -0.029221047 -0.12719034 -0.00043329253 0.0333735 -0.014731574 -0.068455875 -0.069656126
-0.1765118 0.058134 -0.19161949 -0.05164854 -0.013480092 0.11099769 -0.066650786 -0.15302446
0.079880156 -0.12146929 -0.03171418 -0.11740026 0.013600819 0.042477008 -0.25197425 0.06306755
0.12829605 0.2022437 0.10779021 -0.037412483 0.19778347 -0.1387329 -0.030312948 -0.24520615
0.16440907 0.085569404 0.11954573 -0.0659478 -0.12602457 -0.1044157 0.172315 -0.15286495
-0.08493241 -0.07792785 0.05288572 -0.016661918 0.008937237 0.026188547 0.029016996 -0.11485257
-0.028075943 0.10456961 -0.13526864 -0.046306204 -0.067447774 -0.10579659 0.009804651 -0.19261345
-0.02672736 -0.10395833 0.0324868 0.035851482 -0.07672374 -0.063702054 -0.11219353 -0.060648233
0.27451327 0.04017716 -0.065347984 0.093153656 0.036202185 0.13369617 -0.062167067 0.14299788
0.06408446 0.15935677 -0.027143044 0.00023144146 0.08481234 -0.029460995 0.003936256 -0.21479593
0.016785156 0.11416921 -0.05752834 -0.16033354 0.018043263 0.005369084 0.16813314 0.068363145
-0.17777568 -0.11180663 0.20354861 -0.07634327 0.04686438 -0.058230504 -0.0495026 0.052913837
-0.08281997 0.12610489 -0.010853284 0.09235065 0.004162216 -0.036881953 0.03139956 9.265033e-05
0.09855076 -0.1461969 -0.12196732 -0.07873515 -0.055106077 0.083797626 0.16582942 0.09830998
0.24657662 -0.044375833 -0.07320299 -0.11653386 -0.11433485 -0.0024694009 -0.21430342 -0.07429481
0.039507713 0.12133562 -0.111622825 -0.1715892 0.23968342 -0.014520922 0.07596253 -0.06676663
-0.008183315 -0.08361009 0.10916147 0.02943418 0.043940656 0.09394473 0.15670918 0.07552736
-0.022568183 0.08717094 0.06281867 -0.027387967 -0.14390592 0.058903556 -0.14994527 0.03826328
-0.048926678 0.03698469 -0.118280865 0.1354469 0.0074123126 -0.014215888 0.10284002 -0.048938688
-0.1399814 0.03824635 0.026964342 -0.026261132 0.15267436 0.014213145 0.020947212 0.058117907
00000000: 0423 cc3d ca13 f6bd 1e24 c13b 569b fd3d
00000010: 79e8 e5bd 634a 9cbd 89c6 7d3d 8529 0d3d
00000020: 3635 78bb a783 4dbd 5931 babd 7850 fcbd
00000030: 6b09 7b3e 2a97 2f3c c6c8 68bb 3442 ef3c
00000040: baf0 0c3d 285a 2c3d 5de9 353d 3708 4fbd
00000050: 8e7e 343d b99e 6abc d952 f93c ae0b d33c
00000060: 0c61 36bc 02b6 be3d 2cf8 063e 5d46 0dbe
00000070: 62e9 de3d d25d da3c d41a 18be b1f3 dcbd
00000080: afad d73d 8ea6 e1bd bcc0 59bc dafb e53a
00000090: 9238 8d3d 7f02 fdbd 3a09 ff3d 0321 0fbd
000000a0: 4a72 f4bd 1b77 243e c2c0 39bd 79da b7bb
000000b0: 99ab b03d bcd4 95bb 163e 303c 4433 0fbe
000000c0: 9a90 b7bc 10e5 4dbd b178 50bc c036 a1bd
000000d0: 760d 16be 9b1b 46bd 74d6 cb3d d545 f3bd
000000e0: 4c4f edbd 0ad9 f13b 8712 2ebe 3186 a9bd
000000f0: 4314 c43d 1e7d 763d de02 7bbd 3465 1f3d
00000100: 533f b0bc 6654 f23d 1e17 d33d ddd1 3cbd
00000110: a47f d13d a279 e13a fa5f b4bd bfb5 763c
00000120: c29d 623d 1f31 803d c73e a4bd 9058 acbc
00000130: ece4 1e3e f9a9 b23d 9b4e 293d a3e7 1dbe
00000140: 081f fc3d 5e94 e6bd 28f7 b13b 1554 0bbc
00000150: 4190 57bd e7ff b5bd c81d 653e d629 24be
00000160: 6ebe e5bb 35a9 393c 2a14 16bd f6d4 323e
00000170: 0465 81bd 6ed0 c23c f72b 1b3e aa28 013e
00000180: 2044 ce3d fa60 efbc 2f3e 02be 8a2b e3b9
00000190: a7b2 083d b35c 71bc 9832 8cbd dfa7 8ebd
000001a0: 82bf 34be eb1d 6e3d e637 44be 6b8d 53bd
000001b0: 9bdb 5cbc c252 e33d 3580 88bd 72b2 1cbe
000001c0: 3598 a33d e4c4 f8bd bae6 01bd 8c6f f0bd
000001d0: f8d5 5e3c 5ffc 2d3d c502 81be 8f29 813d
000001e0: 0a60 033e f918 4f3e 1dc1 dc3d d53d 19bd
000001f0: c087 4a3e ff0f 0ebe dc52 f8bc 5217 7bbe
00000200: da5a 283e 033f af3d 64d4 f43d a40f 87bd
00000210: 960c 01be e6d7 d5bd 5873 303e a188 1cbe
00000220: 0bf1 adbd a398 9fbd b29e 583d 937e 88bc
00000230: 7d6d 123c 5d89 d63c 0db5 ed3c d337 ebbd
00000240: 85ff e5bc 9728 d63d dd83 0abe 93ab 3dbd
00000250: 0f22 8abd e2ab d8bd b0a3 203c 763c 45be
00000260: 56f3 dabc 1be8 d4bd e110 053d 01d9 123d
00000270: 5621 9dbd 3976 82bd b9c5 e5bd 486a 78bd
00000280: 018d 8c3e ce90 243d 2ad5 85bd 58c7 be3d
00000290: be48 143d a6e7 083e e5a2 7ebd 096e 123e
000002a0: b73e 833d 6c2e 233e 175b debc 18af 7239
000002b0: 18b2 ad3d 2f58 f1bc b5fb 803b 77f3 5bbe
000002c0: 0681 893c 8cd1 e93d d6a2 6bbd 7a2e 24be
000002d0: 77cf 933c 24ef af3b 182b 2c3e fa01 8c3d
000002e0: d40a 36be e0fa e4bd 0c6f 503e dc59 9cbd
000002f0: ddf4 3f3d 1c83 6ebd 3dc3 4abd 2ebc 583d
00000300: 849d a9bd a421 013e f9d1 31bc 5622 bd3d
00000310: 3363 883b 8811 17bd d39c 003d 444d c238
00000320: fbd4 c93d a4b4 15be 01ca f9bd e53f a1bd
00000330: e9b6 61bd 179e ab3d 30cf 293e be56 c93d
00000340: 957e 7c3e 6fc3 35bd 73eb 95bd 4ea9 eebd
00000350: 6428 eabd acd5 21bb 5b72 5bbe e127 98bd
00000360: d7d2 213d cf7e f83d 829a e4bd 14b5 2fbe
00000370: 926f 753e 29e9 6dbc 3e92 9b3d f1bc 88bd
00000380: 5013 06bc c43b abbd 0c90 df3d f31f f13c
00000390: 1efb 333d 1866 c03d 5f78 203e 17ae 9a3d
000003a0: e9e0 b8bc ae86 b23d 13a7 803d bb5c e0bc
000003b0: 135c 13be db44 713d 418b 19be f5b9 1c3d
000003c0: 5767 48bd 427d 173d 3d3d f2bd 98b2 0a3e
000003d0: fce2 f23b c2e9 68bc ca9d d23d ef73 48bd
000003e0: 4957 0fbe 34a8 1c3d 53e4 dc3c 9621 d7bc
000003f0: ab56 1c3e 40de 683c 7d99 ab3c 0b0d 6e3d

arr_3 f4 [12]
-0.008898982 0.091432355 -0.03128501 -0.056490615 -0.04036541 0.031092033 0.023543404 0.03833528
-0.02891394 -0.023447128 -0.016673304 -0.071394764
00000000: 09cd 11bc e340 bb3d b624 00bd b462 67bd
00000010: 3356 25bd b8b4 fe3c 19de c03c 7405 1d3d
00000020: eddc ecbc 3114 c0bc 7496 88bc 6b37 92bd

arr_4 f4 [300, 10]
-0.085311726 -0.087276 -0.12317018 -0.18876667 0.17514685 0.069913484 -0.00393184 0.061272927
0.13238868 0.077315874 -0.05356923 -0.10300636 -0.10299453 0.017983409 -0.30311558 -0.23473747
-0.100253575 -0.2868481 0.036181282 0.2573172 -0.08905453 -0.023263466 -0.08077795 0.105972305
-0.018999051 0.06450387 0.0115741035 -0.06532512 -0.0122888535 -0.08912975 -0.11379438 -0.05380598
-0.01204497 0.021111166 0.096890725 -0.0769881 -0.002005307 -0.007143598 0.14703387 -0.061906293
0.13184655 -0.100058526 0.07015179 -0.117218405 0.21849577 -0.0911735 0.1729143 0.178087
0.02513606 0.05716531 -0.043066524 -0.05482068 0.0032796948 -0.24231595 -0.09423972 0.094590105
-0.14292054 0.13258529 0.062389284 0.11227286 0.115567595 -0.10012122 0.06989429 0.0036251906
0.10840732 -0.15077943 0.05414659 -0.14913332 0.079210274 -0.045748435 0.043582972 0.06687739
-0.18427221 -0.22805192 0.24361475 0.11757746 0.07493246 0.0060888412 0.02808495 0.0655821
0.13321075 -0.0342439 0.014076841 0.028383285 0.05760621 -0.19170658 -0.13064818 0.09127836
0.185297 0.14503425 -0.08270487 -0.24989046 0.1431838 0.060622223 0.043035902 -0.24378903
-0.07884074 0.064646 -0.111905105 0.08297768 0.0076214615 -0.20414947 -0.019777983 0.05544886
0.17021355 0.046585463 -0.19645697 0.12410819 -0.080169156 -0.13600272 -0.04719569 -0.07598887
0.02457357 0.0908312 -0.057532433 -0.060244124 0.04741866 0.17985812 0.16719143 0.07579533
-0.100591734 0.23481658 0.0746621 0.11492974 0.2124179 -0.01665925 -0.017070148 -0.09364157
-0.040573366 -0.10957696 -0.025923137 -0.27312985 -0.14280327 -0.15273929 0.12871659 -0.0723074
0.061760567 -0.11496951 0.0074817166 0.066398956 0.08488569 0.093758866 0.14147988 0.017633906
0.03501374 0.066149436 0.12700544 -0.14972763 0.11086365 -0.0076007014 -0.03374928 -0.19118713
-0.03807956 -0.11566789 0.06333829 -0.076297484 0.1456447 -0.14599682 0.099223316 -0.038199037
-0.09969707 0.11062596 -0.07893442 -0.120426044 0.13805641 -0.06713474 0.11647843 0.19085895
0.12551042 -0.21180572 0.11729133 -0.07690689 -0.08677563 -0.22849329 0.18403424 -0.026381966
-0.17876588 0.16833095 0.08306498 0.008986629 -0.023026722 -0.06277888 0.13541192 0.18020758
-0.18123989 -0.13418244 -0.1511183 0.008453679 -0.055419408 -0.20273034 -0.014651557 0.07274671
-0.030264711 -0.1565271 0.29744017 -0.0027697503 0.13268705 -0.044797596 -0.2811169 -0.31031486
0.13143806 -0.16374858 -0.008502694 -0.0258571 -0.06803043 -0.03612732 0.012131072 -0.12273762
0.007238996 0.11118276 -0.25156292 -0.24355769 0.09199612 0.1778825 -0.27362105 -0.22600959
-0.17224799 0.057930507 -0.24055256 -0.14131822 -0.07987187 -0.18094382 0.09113949 -0.021350108
0.23810616 -0.070997015 -0.17688596 -0.1166547 -0.06374641 0.031431638 -0.091356196 -0.230524
0.084926724 0.11834957 0.15597317 -0.095352516 0.017636491 0.030557554 0.15729098 -0.10049841
0.23092213 0.2962296 0.094282925 -0.11380146 0.50018686 -0.34475198 0.24827863 -0.13602075
-0.3018339 -0.45302364 -0.024553021 0.05622547 -0.21905838 -0.26593524 0.14562216 0.04831649
00000000: eab7 aebd c2bd b2bd a640 fcbd 0d4c 41be
00000010: b259 333e cd2e 8f3d aad6 80bb 52f9 7a3d
00000020: e690 073e c957 9e3d 696b 5bbd 00f5 d2bd
00000030: ccee d2bd f151 933c f731 9bbe 055f 70be
00000040: bf51 cdbd c1dd 92be d332 143d 14bf 833e
00000050: 3962 b6bd 0693 bebc e96e a5bd 0208 d93d
00000060: e6a3 9bbc 9b1a 843d 4fa1 3d3c 2dc9 85bd
00000070: 3057 49bc a989 b6bd 070d e9bd a963 5cbd
00000080: 4458 45bc 53f1 ac3c a56e c63d f0ab 9dbd
00000090: 786b 03bb d814 eabb 0c90 163e 7491 7dbd
000000a0: c802 073e 7ceb ccbd beab 8f3d 3410 f0bd
000000b0: 5bbd 5f3e 2cb9 babd 7210 313e 705c 363e
000000c0: 23ea cd3c 2c26 6a3d 8666 30bd a68b 60bd
000000d0: 26f0 563b ac21 78be c100 c1bd 75b8 c13d
000000e0: c359 12be 70c4 073e e88b 7f3d 50ef e53d
000000f0: b4ae ec3d 5b0c cdbd bd24 8f3d 9b94 6d3b
00000100: a804 de3d ec65 1abe d1c8 5d3d 68b6 18be
00000110: ff38 a23d b662 3bbd 0f84 323d 03f7 883d
00000120: dbb1 3cbe 7186 69be 2576 793e 74cc f03d
00000130: 3176 993d e784 c73b 6912 e63c e84f 863d
00000140: 6668 083e 5543 0cbd 8da2 663c 1084 e83c
00000150: 7df4 6b3d bb4e 44be a3c8 05be 26f0 ba3d
00000160: 7fbe 3d3e dc83 143e 2c61 a9bd 49e3 7fbe
00000170: c69e 123e 024f 783d 6a46 303d d5a3 79be
00000180: 4177 a1bd 1f65 843d 812e e5bd 34f0 a93d
00000190: 74bd f93b 8f0c 51be 7005 a2bc 581e 633d
000001a0: 764c 2e3e 66d0 3e3d 042c 49be 6f2c fe3d
000001b0: ba2f a4bd 4c44 0bbe 4550 41bd 0da0 9bbd
000001c0: 834e c93c b505 ba3d 21a7 6bbd 8bc2 76bd
000001d0: 123a 423d ba2c 383e 3b34 2b3e 953a 9b3d
000001e0: 0a03 cebd c273 703e 71e8 983d 4960 eb3d
000001f0: 1484 593e fb78 88bc b2d6 8bbc 27c7 bfbd
00000200: 4230 26bd e369 e0bd c25c d4bc add7 8bbe
00000210: 053b 12be b067 1cbe 48ce 033e e715 94bd
00000220: a6f8 7c3d 2275 ebbd 3029 f53b 2dfc 873d
00000230: 8cd8 ad3d a604 c03d 1ae0 103e fb74 903c
00000240: 916a 0f3d 5b79 873d b70d 023e 3352 19be
00000250: 7b0c e33d 4e0f f9bb af3c 0abd 8fc6 43be
00000260: 50f9 1bbd 49e3 ecbd 81b7 813d db41 9cbd
00000270: e223 153e 3180 15be 9835 cb3d 9876 1cbd
00000280: fa2d ccbd dd8f e23d 5fa8 a1bd eea1 f6bd
00000290: a95e 0d3e f07d 89bd 3e8c ee3d 8770 433e
000002a0: ce85 003e 99e3 58be 7036 f03d 5c81 9dbd
000002b0: 6cb7 b1bd 25fa 69be 7973 3c3e fe1e d8bc
000002c0: 670e 37be f35e 2c3e f91d aa3d a73c 133c
000002d0: 89a2 bcbc 3792 80bd 6ca9 0a3e 5688 383e
000002e0: f396 39be 1f67 09be c1be 1abe 4d81 0a3c
000002f0: 76ff 62bd 8b98 4fbe 160d 70bc 3afc 943d
00000300: b3ed f7bc a448 20be 144a 983e b384 35bb
00000310: 1ddf 073e af7d 37bd 8eee 8fbe 97e1 9ebe
00000320: b397 063e b5ad 27be e24e 0bbc 45d2 d3bc
00000330: 8a53 8bbd 3efa 13bd 67c1 463c dc5d fbbd
00000340: 1a35 ed3b c9b3 e33d dbcc 80be 3067 79be
00000350: 7668 bc3d d526 363e 0f18 8cbe 0f6f 67be
00000360: c761 30be 8a48 6d3d 6953 76be b9b5 10be
00000370: dd93 a3bd 5649 39be 57a7 ba3d 6ce6 aebc
00000380: 1ad2 733e e266 91bd 9821 35be a9e8 eebd
00000390: 7a8d 82bd 76be 003d f518 bbbd 7c0e 6cbe
000003a0: 10ee ad3d 4261 f23d 6eb7 1f3e 2e48 c3bd
000003b0: 677a 903c d653 fa3c e310 213e 1cd2 cdbd
000003c0: da76 6c3e 68ab 973e 6817 c13d bd10 e9bd
000003d0: 3f0c 003f 5583 b0be c13c 7e3e 0649 0bbe
000003e0: f989 9abe b7f2 e7be 6b23 c9bc ae4c 663d
000003f0: d750 60be aa28 88be fa1d 153e 83e7 453d

arr_5 f4 [10]
0.030178636 0.068512596 -0.014249615 -0.033667788 -0.0017183445 -0.0003541988 0.009048015 0.023125255
-0.034504537 -0.012437649
00000000: 3039 f73c 5550 8c3d 3877 69bc 3ce7 09bd
00000010: 133a e1ba c2b3 b9b9 203e 143c 2d71 bd3c
00000020: a154 0dbd 48c7 4bbc
